PMSP/Archive/241113_Data_02_cpu/model/episode_28000.pt (torch, 382280 bytes, 7 tensors)

fc1.weight f4 [256, 61]
0.0073210285 -0.02179313 0.057894006 0.07519849 0.0013608711 0.1334305 -0.046851024 0.0381913
0.000840317 0.1232848 0.13202691 -0.119935885 -0.054707706 -0.046984546 0.1238679 0.11982933
0.10785224 -0.09817466 0.12517518 0.009625167 0.0988593 -0.08263883 -0.08942213 -0.02482826
0.121587954 -0.19819452 -0.13441418 0.0147079285 -0.05794238 0.14438021 0.16787528 -0.021687157
-0.073046274 0.16046782 0.12421216 -0.08595656 -0.02233758 -0.12218104 0.038781244 -0.35957044
0.12817943 0.26049817 -0.11134881 0.1294211 0.23272048 -0.13943753 0.114367545 0.15578581
0.0146274725 -0.18449956 0.067324415 -0.032990843 -0.23396446 -0.042962056 -0.19492103 0.15564412
-0.10205957 -0.014425428 0.046075877 -0.054726563 -0.02765237 -0.013281524 0.06493179 0.1239977
0.18444751 0.13666284 0.13680848 0.10841351 0.04750661 -0.05464876 0.08697606 0.14987211
0.2500792 0.08373526 0.0071982816 -0.17697829 0.13019218 -0.17600384 -0.1947017 0.15546735
0.09483476 -0.020493064 -0.032826357 0.031706627 -0.0009912801 0.09102092 -0.0520789 -0.030090552
0.013093355 -0.1550989 -0.03296917 -0.12740795 0.18168788 0.025371203 -0.12777166 -0.09289838
0.10681349 0.0059235534 -0.03563174 -0.10118152 -0.14557837 0.1262135 -0.13911162 0.009808592
-0.0148836905 0.16232678 -0.14623341 0.12784666 0.20620562 0.11924379 0.09595216 -0.16248412
0.121920235 0.09395102 0.031669777 0.11520807 0.09913031 -0.14438973 -0.11858216 0.056997303
0.031160008 0.068504564 0.08126061 0.1568937 0.118512936 0.10380228 0.016356273 0.15040576
-0.06252984 0.029073661 0.03440853 0.05510239 -0.03909884 0.0050166696 -0.08703654 -0.025875924
-0.21615604 0.25878596 -0.11077607 -0.1522038 -0.12651408 -0.037947778 0.08380626 0.08979552
0.072096564 -0.1504369 -0.06371008 0.3314191 0.122384876 -0.013991713 -0.33974862 0.14959584
-0.19598731 -0.07886034 -0.09344871 0.0966215 0.039339907 0.039397374 0.027269982 -0.13022678
0.2039578 -0.06385445 -0.08099808 -0.13267814 -0.017961994 -0.008073288 0.15311353 0.010708154
0.09773136 -0.18284859 -0.113944024 0.08642688 0.11023402 0.10006454 -0.07458704 0.10160747
0.105781764 -0.15766126 0.1594075 -0.041772004 -0.05472132 0.10306666 0.15639473 0.113146745
0.16455203 0.050347105 0.14841792 0.011858748 0.11627515 -0.116714865 0.025765078 -0.03665159
-0.15487915 -0.028730862 0.12025305 -0.049456727 0.05064407 -0.056832276 0.07447003 -0.08857877
0.12137482 0.00097528286 -0.07883583 0.026514746 0.116403304 0.0820543 -0.022706196 -0.011334949
0.012134067 0.19248252 0.05568354 0.0029083122 0.017387088 0.14968249 0.20495842 -0.11125947
0.08020337 0.00811668 0.10394019 -0.11086844 -0.14219794 0.025569359 0.24406497 -0.07980479
0.05636607 -0.06850495 0.05004167 0.109847285 0.02326842 0.13880897 0.07545481 0.14150865
0.15730575 0.07007615 -0.13623457 0.0035322364 0.13787645 -0.04406229 -0.015548416 0.06816931
-0.036463983 -0.053025234 -0.09257018 0.12369227 0.02647385 0.07967888 0.12531844 -0.046091896
0.06429844 0.015087769 -0.02583719 0.096333005 0.15195306 0.038431484 0.07818284 -0.01990477
00000000: 3de5 ef3b 8287 b2bc 4422 6d3d aa01 9a3d
00000010: 425f b23a 01a2 083e dce6 3fbd 7b6e 1c3d
00000020: b848 5c3a be7c fc3d 1032 073e f2a0 f5bd
00000030: 3015 60bd de72 40bd 74ae fd3d 1469 f53d
00000040: a3e1 dc3d cc0f c9bd ec2d 003e e0b2 1d3c
00000050: bf76 ca3d 8c3e a9bd f322 b7bd a364 cbbc
00000060: 1b03 f93d 81f3 4abe dfa3 09be 86f9 703c
00000070: fd54 6dbd 68d8 133e 7fe7 2b3e 44a9 b1bc
00000080: 4999 95bd ad51 243e f262 fe3d fe09 b0bd
00000090: 4dfd b6bc 0e3a fabd 15d9 1e3d 9e19 b8be
000000a0: 7841 033e 0460 853e d80a e4bd f786 043e
000000b0: 474e 6e3e b6c8 0ebe 8839 ea3d 5186 1f3e
000000c0: 11a8 6f3c 74ed 3cbe 62e1 893d 6821 07bd
000000d0: 6194 6fbe fbf8 2fbd 6199 47be 2c61 1f3e
000000e0: 9c04 d1bd a158 6cbc 0fba 3c3d f628 60bd
000000f0: 3987 e2bc c09a 59bc f5fa 843d 82f2 fd3d
00000100: cfdf 3c3e 58f1 0b3e 8617 0c3e e707 de3d
00000110: 4b96 423d 61d7 5fbd 8120 b23d 1378 193e
00000120: 620a 803e 647d ab3d 90df eb3b cc39 35be
00000130: 1951 053e 5a3a 34be e25f 47be d532 1f3e
00000140: ba38 c23d 12e1 a7bc ee74 06bd cfde 013d
00000150: d7ed 81ba 2d69 ba3d af50 55bd 7680 f6bc
00000160: 8385 563c 3fd2 1ebe ae0a 07bd 3b77 02be
00000170: 630c 3a3e 45d7 cf3c 93d6 02be 8141 bebd
00000180: 08c1 da3d 5e1a c23b 96f2 11bd 4238 cfbd
00000190: 7f12 15be 1d3e 013e 4773 0ebe 37b4 203c
000001a0: b9da 73bc fe38 263e 36be 15be 3cea 023e
000001b0: 9127 533e 1736 f43d 9182 c43d 3d62 26be
000001c0: 51b1 f93d 6469 c03d 2bb8 013d 35f2 eb3d
000001d0: d504 cb3d e7da 13be 34db f2bd 0176 693d
000001e0: 4643 ff3c 1f4c 8c3d f66b a63d bea8 203e
000001f0: e9b6 f23d 4a96 d43d 97fd 853c f803 1a3e
00000200: a50f 80bd e32b ee3c f5ef 0c3d 0bb3 613d
00000210: 1b26 20bd e062 a43b 3740 b2bd bff9 d3bc
00000220: 0258 5dbe 987f 843e 90de e2bd 50db 1bbe
00000230: e88c 01be 216f 1bbd 9ea2 ab3d b7e6 b73d
00000240: 5da7 933d 210c 1abe 6e7a 82bd c4af a93e
00000250: eca4 fa3d 7f3d 65bc 88f3 adbe a72f 193e
00000260: e6b0 48be 8881 a1bd 0a62 bfbd 7ee1 c53d
00000270: e222 213d 245f 213d 4c65 df3c 2b5a 05be
00000280: 50da 503e 1fc6 82bd 52e2 a5bd c7dc 07be
00000290: 0825 93bc d345 04bc cbc9 1c3e 4171 2f3c
000002a0: 6127 c83d a93c 3bbe 7c5b e9bd 9300 b13d
000002b0: 60c2 e13d a3ee cc3d 17c1 98bd 9417 d03d
000002c0: 1ca4 d83d f471 21be b83b 233e 1f19 2bbd
000002d0: 7623 60bd 9d14 d33d f125 203e 7bb9 e73d
000002e0: 5480 283e c438 4e3d defa 173e 324b 423c
000002f0: aa21 ee3d 3408 efbd 4911 d33c fa1f 16bd
00000300: a498 1ebe fc5c ebbc 3b47 f63d 2393 4abd
00000310: 2870 4f3d f6c8 68bd be83 983d c968 b5bd
00000320: 5d93 f83d 20aa 7f3a ae74 a1bd 7435 d93c
00000330: db64 ee3d 160c a83d 5802 babc 39b6 39bc
00000340: f7cd 463c 231a 453e 6c14 643d 6299 3e3b
00000350: 5e6f 8e3c 5e46 193e 9fe0 513e 01dc e3bd
00000360: aa41 a43d d3fb 043c 98de d43d fe0e e3bd
00000370: 569c 11be d576 d13c 2bec 793e b270 a3bd
00000380: 1ce0 663d 534c 8cbd 7ff8 4c3d 9df7 e03d
00000390: 6a9d be3c f023 0e3e 0d88 9a3d a5e7 103e
000003a0: c214 213e 1684 8f3d 1381 0bbe 187d 673b
000003b0: 7c2f 0d3e a97a 34bd c9be 7ebc 5a9c 8b3d
000003c0: 425b 15bd fd30 59bd 6f95 bdbd 5f52 fd3d
000003d0: b0df d83c ae2e a33d 7a53 003e dbca 3cbd
000003e0: e7ae 833d b132 773c 84a8 d3bc 3d4a c53d
000003f0: 9599 1b3e 556a 1d3d 531e a03d 540f a3bc

fc1.bias f4 [256]
0.18328997 0.16060343 0.10565172 -0.06355959 -0.039627396 -0.0016880265 0.19358179 0.052013382
0.10554888 0.0050421227 0.04557691 0.11436875 0.058709387 0.062411044 0.13396752 -0.018316844
0.032600537 0.17171843 0.045707803 -0.018857554 -0.05073212 -0.017005365 0.19486213 0.08991738
-0.0509716 -0.04875738 0.1927655 -0.07043391 0.16614152 -0.021426294 -0.007744526 -0.012226894
0.047844138 0.043639224 0.1706947 0.1424183 -0.13994916 0.12186799 -0.08339983 0.1234531
0.19862391 0.08968522 0.10100206 -0.056938067 0.16785261 0.013398851 0.026421048 0.073584594
0.18230566 0.06443593 0.14856635 0.15358561 0.1348317 0.21055777 0.14488773 -0.065913945
0.052982464 0.051321037 0.13480298 -0.083808586 0.061093234 0.035538968 0.07399117 -0.039963942
-0.0537051 0.18035734 0.063683756 0.12695767 0.056783903 0.12737744 0.16669323 0.10291718
0.008262252 -0.057175875 0.07114938 0.21693766 0.15814427 0.1387259 -0.06728573 0.15063357
-0.034234617 -0.097678155 0.24963059 0.15440741 0.06767442 0.22365269 0.06760795 0.1301714
0.057511874 0.098533064 0.018791512 0.09122105 0.050142117 0.08986853 -0.024986958 0.18370515
-0.006006644 0.09096499 0.07358566 0.18909094 -0.04889107 0.15725502 0.2156253 -0.024560032
0.07260937 0.11155615 0.24639142 -0.04299319 0.19015759 0.14394414 0.21792564 0.025821514
0.039206058 0.20489614 0.046810716 0.22421499 -0.04065507 0.14855611 0.14271684 0.075596265
0.056601062 0.1711613 0.039088394 0.22775878 0.0113588935 0.1529336 0.20190147 0.052153368
0.15170519 0.16642345 0.1311047 0.045440577 0.07930963 0.09209101 -0.1164428 0.17135748
-0.018195631 0.13004756 0.10955086 0.053634 0.15990442 0.07598045 0.0121080885 0.022650864
0.14253892 -0.025380133 0.08692839 -0.037930403 0.031093504 0.044598985 -0.073330656 -0.03626752
0.026328126 0.11638599 0.025368745 -0.045934502 0.16916172 0.07652412 0.019468505 0.17765906
0.07564426 -0.102862485 0.05711642 0.024767222 0.042000934 0.08029403 0.05939882 -0.009389385
0.113056906 0.22310142 -0.00558988 -0.017477596 0.14339212 0.016689947 -0.012251507 0.13027418
-0.0059976876 0.025396395 0.20832025 0.20053832 -0.052616525 0.024668653 0.13924153 0.2023045
0.23000659 0.08022219 0.076001145 0.046914488 0.074823916 0.056920566 0.05810583 -0.026282825
0.08598785 0.0720989 0.16758065 0.2238285 0.0041960184 0.055596855 -0.056934223 0.005099613
0.2499413 0.08183151 -0.0317879 -0.02413686 -0.007402967 0.0033031802 0.051187716 0.18753079
0.0070662755 0.10293311 0.18770923 0.021514606 -0.06485647 0.06891999 -0.061067373 0.0029581806
0.1325444 0.17121494 0.05154473 -0.07204088 0.11577856 0.22139889 0.12869819 0.09122526
0.11353858 0.0520943 0.07331458 0.05323608 -0.013671624 0.030614112 -0.080228366 0.18699
0.1417907 0.1046786 0.06713509 0.09200521 -0.0020541046 -0.017105343 0.12766519 0.11096846
0.24981748 0.17505972 0.06777799 0.10571075 0.1323377 0.0202639 0.008554002 0.1439765
0.19644476 0.09261025 0.13250896 0.09857911 0.18771678 -0.09768147 0.08804646 -0.032104105
00000000: 5eb0 3b3e 3a75 243e ee5f d83d 882b 82bd
00000010: 5650 22bd c540 ddba 4e3a 463e fc0b 553d
00000020: 032a d83d 6438 a53b dbae 3a3d 2a3a ea3d
00000030: 4179 703d b9a2 7f3d c82e 093e 350d 96bc
00000040: 2488 053d f5d6 2f3e 1b38 3b3d 287b 9abc
00000050: 7ccc 4fbd d64e 8bbc f089 473e 9a26 b83d
00000060: 99c7 50bd d2b5 47bd 5264 453e a73f 90bd
00000070: 0121 2a3e 3286 afbc cbc5 fdbb 4f53 48bc
00000080: 37f8 433d 0bbf 323d 97ca 2e3e 1ad6 113e
00000090: d54e 0fbe ed95 f93d 88cd aabd fbd4 fc3d
000000a0: 1164 4b3e e2ac b73d 2bda ce3d e437 69bd
000000b0: 8ee1 2b3e db86 5b3c f470 d83c 85b3 963d
000000c0: 56ae 3a3e fcf6 833d c721 183e 8c45 1d3e
000000d0: 5211 0a3e 759c 573e 735d 143e e4fd 86bd
000000e0: 2404 593d 0236 523d cb09 0a3e d6a3 abbd
000000f0: e63c 7a3d 4f91 113d af88 973d 3bb1 23bd
00000100: e1f9 5bbd 98af 383e a16c 823d 3101 023e
00000110: 3d96 683d 3b6f 023e a1b1 2a3e 3ec6 d23d
00000120: 665e 073c 4031 6abd c4b6 913d e824 5e3e
00000130: 92f0 213e 2a0e 0e3e 1acd 89bd b03f 1a3e
00000140: 9939 0cbd 7c0b c8bd 299f 7f3e fa1c 1e3e
00000150: e398 8a3d 3605 653e 0976 8a3d a74b 053e
00000160: 9291 6b3d b4cb c93d a8f0 993c 1ad2 ba3d
00000170: d261 4d3d fe0c b83d 73b1 ccbc 341d 3c3e
00000180: 62d3 c4bb da4b ba3d 14b4 963d 0ea1 413e
00000190: 0142 48bd 7607 213e e1cc 5c3e 1f32 c9bc
000001a0: 39b4 943d 8d77 e43d 084e 7c3e a119 30bd
000001b0: acb8 423e 1866 133e e627 5f3e a487 d33c
000001c0: 8896 203d 4bd0 513e 98bc 3f3d 9d98 653e
000001d0: ee85 26bd 181f 183e 5d24 123e 37d2 9a3d
000001e0: 84d6 673d e844 2f3e 271b 203d 9939 693e
000001f0: a71a 3a3c a09a 1c3e 42bf 4e3e c59e 553d
00000200: 9b58 1b3e e96a 2a3e 4f40 063e e61f 3a3d
00000210: 166d a23d 369a bc3d 9079 eebd 5678 2f3e
00000220: 010f 95bc 302b 053e 345c e03d 53af 5b3d
00000230: fcbd 233e a39b 9b3d 0161 463c 4e8e b93c
00000240: b9f5 113e ffe9 cfbc 8307 b23d e95c 1bbd
00000250: ceb7 fe3c 6dad 363d 622e 96bd 408d 14bd
00000260: 15ae d73c c75b ee3d 1dd2 cf3c d125 3cbd
00000270: bb38 2d3e aeb8 9c3d 6a7c 9f3c 42ec 353e
00000280: 61eb 9a3d 91a9 d2bd e8f2 693d a1e4 ca3c
00000290: 2c09 2c3d 3271 a43d 2d4c 733d efd5 19bc
000002a0: 618a e73d b374 643e 502b b7bb 2d2d 8fbc
000002b0: 62d5 123e 5bb9 883c 8bba 48bc 9866 053e
000002c0: 4088 c4bb 1a0c d03c e751 553e eb59 4d3e
000002d0: 6d84 57bd ea15 ca3c 5595 0e3e e928 4f3e
000002e0: d986 6b3e 884b a43d 7da6 9b3d 6829 403d
000002f0: 483d 993d 8a25 693d 6100 6e3d 144f d7bc
00000300: 661a b03d 97a8 933d 439a 2b3e 4c33 653e
00000310: c17e 893b 87b9 633d dc33 69bd a81a a73b
00000320: 9df0 7f3e 4797 a73d 0734 02bd aaba c5bc
00000330: 9794 f2bb 2b7a 583b 36aa 513d 1208 403e
00000340: 378c e73b 98ce d23d d936 403e 663f b03c
00000350: 78d3 84bd ec25 8d3d c821 7abd 09de 413b
00000360: b8b9 073e f852 2f3e 9120 533d 2b8a 93bd
00000370: 4f1d ed3d 64b6 623e 75c9 033e 4fd4 ba3d
00000380: ea86 e83d d560 553d f425 963d 130e 5a3d
00000390: f2fe 5fbc 72ca fa3c c54e a4bd 4e7a 3f3e
000003a0: 9531 113e bc61 d63d 1f7e 893d 3a6d bc3d
000003b0: 289e 06bb 8120 8cbc aaba 023e 6f43 e33d
000003c0: 27d0 7f3e db42 333e 30cf 8a3d e17e d83d
000003d0: 8983 073e 7a00 a63c 1626 0c3c 936e 133e
000003e0: d128 493e 71aa bd3d 6eb0 073e d8e3 c93d
000003f0: d438 403e 390d c8bd b451 b43d 987f 03bd

fc2.weight f4 [256, 256]
0.07268579 -0.059941076 0.06992447 -0.027013972 0.06321842 0.013705653 -0.0889912 0.06773052
-0.07009758 -0.007417743 0.0049044685 -0.0056211366 0.017827813 -0.08026316 0.03681314 -0.019900562
0.10902302 -0.096139364 -0.004175852 -0.053398907 0.0372141 0.10281004 -0.103674926 0.04903706
0.04914946 -0.003580519 0.11057598 0.015363808 0.021324378 -0.010956374 -0.02431311 0.059019893
0.0434477 0.08147764 -0.10101944 -0.003990418 0.016298864 -0.0083901435 -0.045419253 0.020486135
0.080865234 -0.101784505 -0.08980607 -0.02487096 -0.027614258 -0.07952131 0.026237903 -0.081085905
0.022161009 0.09505037 -0.068288155 0.14703669 0.007831189 -0.046911407 0.04190172 0.0074709835
-0.0038094195 -0.0042384933 -0.016532417 0.010149309 0.05055316 -0.06377921 0.012801311 -0.051122196
-0.051755782 0.024852362 -0.009073243 -0.14331013 0.04215486 -0.01670533 0.081046976 -0.08419531
0.10220665 -0.029535865 -0.06752268 -0.00066942174 0.03785948 -0.025368404 0.042928044 -0.025524622
-0.010160933 -0.0017245023 -0.11195523 0.045348376 -0.02628711 -0.13747023 -0.03254697 0.081047714
0.045849193 -0.018696 -0.036569327 0.053445462 -0.09341086 0.03561795 -0.068946116 -0.026038906
-0.03150062 -0.0019898864 -0.0009944013 0.07265437 0.021687703 -0.04912032 -0.07281951 -0.0038681515
-0.0754625 -0.04635241 0.06676374 0.05237947 -0.024130397 0.010965082 0.12950963 0.029814553
0.06050052 0.0301525 -0.05372606 -0.016978327 0.11926126 0.08158884 0.065203965 0.07763562
0.017453812 -0.011339148 0.05724568 -0.029623475 0.08991268 0.04545576 -0.06850602 0.045216292
-0.02241287 0.028457327 -0.0074392417 0.0014969762 0.08797529 -0.13412629 -0.036021635 -0.05764385
-0.019286621 0.006396886 -0.00765127 0.0574381 0.09720221 0.061788186 -0.08837436 -0.05627203
0.07204026 -0.0016342445 -0.041587632 0.0848088 0.07988531 0.035575517 0.05472509 -0.021297907
0.14406073 0.1345421 -0.0072142803 0.05499132 0.06389877 -0.015860872 0.01795978 0.060041077
0.08989052 -0.042628426 -0.026859725 -0.012136178 0.0035907258 -0.078907855 -0.084485054 0.00065926876
-0.050903685 0.12964165 0.008792012 0.06597806 0.09013033 -0.011548455 0.010627614 0.011222767
0.041391302 0.030963464 0.059987463 0.015622283 0.04950911 0.11985114 -0.00052419613 0.026806943
0.10654897 0.08563574 0.092771836 -0.06370089 0.04147278 0.06197569 -0.0178067 0.007559332
0.038553737 -0.028291546 0.031942774 -0.111583464 0.072328866 -0.03372082 -0.05565707 0.00092703546
-0.14704245 0.075681575 0.06857607 0.08915731 -0.06868441 0.047436092 0.04151359 -0.1452886
-0.008892994 0.028419735 0.043384444 -0.046450045 0.10963529 -0.04198604 -0.050124012 0.08381666
-0.0071765985 -0.07410008 0.053543404 0.014155254 0.0019186364 -0.1100147 -0.037970025 -0.032974444
0.012103557 0.03713015 -0.0116922315 0.09724087 -0.03306584 0.052396927 -0.035244834 0.016863136
-0.02168868 0.039101448 -0.09075592 -0.044057094 -0.0020057268 -0.009617469 0.01949384 -0.02141057
-0.0057799164 0.04103389 0.044418 -0.053625945 -0.073193826 0.06276688 0.054179158 0.051590882
-0.11111774 -0.02564145 -0.0034997067 0.03322429 0.10037319 0.039119415 0.05375504 0.062411398
00000000: 4adc 943d c684 75bd 8f34 8f3d 684c ddbc
00000010: a978 813d ad8d 603c 0541 b6bd 4db6 8a3d
00000020: 528f 8fbd 8a10 f3bb aab5 a03b 8331 b8bb
00000030: a20b 923c 0361 a4bd 60c9 163d 8106 a3bc
00000040: 7647 df3d b7e4 c4bd 96d5 88bb d0b8 5abd
00000050: d06d 183d 128e d23d 8553 d4bd 16db 483d
00000060: f250 493d 24a7 6abb a975 e23d 7bb8 7b3c
00000070: 76b0 ae3c 5d82 33bc 4a2c c7bc d8be 713d
00000080: 37f6 313d c0dd a63d 48e3 cebd 0dc2 82bb
00000090: 3285 853c d076 09bc 8a09 3abd 8ad2 a73c
000000a0: ac9c a53d 6574 d0bd 3fec b7bd 2fbe cbbc
000000b0: 4c37 e2bc 12dc a2bd dff0 d63c 5e10 a6bd
000000c0: 018b b53c c5a9 c23d a9da 8bbd c990 163e
000000d0: 634e 003c 2d26 40bd 23a1 2b3d 27cf f43b
000000e0: 74a7 79bb 0fe3 8abb fe6e 87bc 4a49 263c
000000f0: d510 4f3d ad9e 82bd 97bc 513c 8265 51bd
00000100: dffd 53bd 2e97 cb3c f0a7 14bc e4bf 12be
00000110: 93aa 2c3d 9ed9 88bc f5fb a53d 976e acbd
00000120: b851 d13d 33f5 f1bc 5549 8abd 227c 2fba
00000130: 8b12 1b3d 66d1 cfbc 51d5 2f3d 0319 d1bc
00000140: 0b7a 26bc b208 e2ba c948 e5bd 38bf 393d
00000150: 1158 d7bc ffc4 0cbe f94f 05bd 58fc a53d
00000160: 5dcc 3b3d 5b28 99bc b8c9 15bd a1e9 5a3d
00000170: 314e bfbd 21e4 113d 9f33 8dbd 8b4f d5bc
00000180: cb06 01bd c168 02bb 9256 82ba d0cb 943d
00000190: 69aa b13c 6332 49bd 6522 95bd d080 7dbb
000001a0: 158c 9abd 06dc 3dbd 6dbb 883d db8b 563d
000001b0: 1cad c5bc e3a6 333c 2c9e 043e a63d f43c
000001c0: 65cf 773d 6002 f73c db0f 5cbd 2216 8bbc
000001d0: 3f3f f43d 0d18 a73d a889 853d 6dff 9e3d
000001e0: 4cfb 8e3c d5c7 39bc 727a 6a3d eeac f2bc
000001f0: 2424 b83d d22f 3a3d e24c 8cbd b834 393d
00000200: 329b b7bc 571f e93c e2c4 f3bb 3036 c43a
00000210: 642c b43d 6758 09be 6c8b 13bd f51b 6cbd
00000220: fafe 9dbc f89c d13b 81b7 fabb 3744 6b3d
00000230: f411 c73d 9c15 7d3d 9efd b4bd 807d 66bd
00000240: d889 933d 2534 d6ba cb57 2abd 3cb0 ad3d
00000250: e99a a33d a2b7 113d 6a27 603d f378 aebc
00000260: a884 133e 67c5 093e c565 ecbb 943e 613d
00000270: 5cdd 823d a9ee 81bc 6320 933c a2ed 753d
00000280: 8518 b83d 259b 2ebd ed08 dcbc d2d6 46bc
00000290: 6252 6b3b 719a a1bd 8006 adbd c7d2 2c3a
000002a0: 6280 50bd c8c0 043e 5f0c 103c 811f 873d
000002b0: 4096 b83d bb35 3dbc 721f 2e3c b2df 373c
000002c0: ed89 293d 17a7 fd3c 6ab5 753d 9bf4 7f3c
000002d0: 11ca 4a3d 8474 f53d 356a 09ba 3c9a db3c
000002e0: 5936 da3d ca61 af3d 29ff bd3d 9d75 82bd
000002f0: 5ddf 293d 39da 7d3d 5bdf 91bc 46b4 f73b
00000300: 86ea 1d3d acc3 e7bc 6dd6 023d df85 e4bd
00000310: 2821 943d d81e 0abd abf8 63bd 4c04 733a
00000320: 4c92 16be f1fe 9a3d 9c71 8c3d 1c98 b63d
00000330: 69aa 8cbd 594c 423d 270a 2a3d 89c6 14be
00000340: ecb3 11bc 81d0 e83c e3b3 313d 6742 3ebd
00000350: 7888 e03d 8ef9 2bbd d64e 4dbd 12a8 ab3d
00000360: ac29 ebbb c8c1 97bd 5450 5b3d 70eb 673c
00000370: c17a fb3a 634f e1bd 7586 1bbd 3610 07bd
00000380: ff4d 463c c915 183d c690 3fbc 3926 c73d
00000390: 0c70 07bd 299e 563d e35c 10bd 8f24 8a3c
000003a0: 75ac b1bc d728 203d 3dde b9bd 3675 34bd
000003b0: 8372 03bb 9792 1dbc 8cb1 9f3c 3865 afbc
000003c0: 7465 bdbb 2713 283d a6ef 353d e1a6 5bbd
000003d0: a5e6 95bd ec8b 803d f7ea 5d3d f650 533d
000003e0: b391 e3bd 050e d2bc 565b 65bb 3116 083d
000003f0: 7690 cd3d ae3b 203d 3f2e 5c3d 18a3 7f3d

fc2.bias f4 [256]
0.07234251 0.09637898 0.011364893 -0.04269796 -0.0053537115 -0.019455258 0.03608011 0.0382529
0.038297072 -0.046172485 -0.00050034194 -0.02558784 0.11288957 -0.004025889 0.0046329796 -0.014226973
-0.024080636 -0.0045577846 -0.016989315 0.06358331 0.014638712 0.04866292 0.08601027 0.026804024
-0.029852225 0.069298714 -0.026333466 0.086692326 -0.049496952 0.029666882 -0.012566014 -0.063516974
-0.02406227 0.08936278 0.05922703 0.0181607 0.00379804 -0.024930933 -0.0006040373 -0.042021826
-0.02512719 -0.037472636 0.04288803 0.013050855 0.05090876 0.04395551 0.010904521 -0.04131754
-0.0071664113 -0.04841704 -0.040841524 -0.009939421 0.066503234 0.04576895 0.03570754 0.039018698
0.089327104 0.057149436 0.0724986 0.03727967 0.10104745 0.018342705 -0.046821233 -0.036661215
-0.031437065 0.071933106 0.021404801 0.06478042 0.08365088 0.0773742 -0.05140312 0.07779693
0.023817746 0.044406284 0.1116789 0.05904322 0.09074221 0.08225156 -0.006105244 -0.021830956
-0.04058004 -0.0053538578 -0.06120835 0.08641614 0.062160004 -0.0028363417 0.008908209 0.04994262
0.024177523 0.07172546 0.09332536 -0.0036466264 -0.05675179 0.055206653 -0.0154095385 -0.0015608993
-0.034332104 0.024833884 -0.012967371 0.06513101 0.053385243 -0.04035437 0.0756913 -0.0050664605
-0.048776265 -0.04009462 0.06284242 0.024063684 0.051668394 0.03361634 -0.03812476 -0.0069524674
-0.019483313 -0.046195515 0.014996966 -0.0056375517 -0.0155588705 0.012824113 -0.026855031 0.015314282
0.031439908 0.06908018 0.009882577 0.039946742 0.06886219 0.0040298826 -0.019212885 0.0025004817
-0.017561179 0.012793419 0.024244867 -0.0015776658 0.006352745 0.039188437 0.06001425 0.04295934
0.008898726 -0.034536317 0.02878036 0.03899584 -0.05190687 0.021475304 -0.01790557 0.05937993
0.0063981498 0.083810195 -0.017369151 -0.015913842 0.0592478 0.060353354 0.071049854 0.026215063
-0.016397385 0.036954805 0.06424828 0.015262291 0.047419883 -0.075754784 0.07647601 -0.06063966
-0.0892642 0.09757319 -0.0070908354 0.07887283 -6.063701e-05 0.022039438 0.07569279 -0.056749564
0.043664787 -0.031245854 0.019942366 -0.05958476 -0.059561633 0.071647644 0.123565204 0.1033924
0.09389697 -0.016144736 0.05370663 0.014577197 0.04612315 0.0142900245 0.117620796 0.006465519
0.02544048 -0.011242986 -0.03640627 -0.035183907 0.071501255 -0.0900795 -0.053281613 -0.0051238663
0.048555207 0.06235047 0.055045046 -0.037184443 -0.0044115535 0.052646205 -0.0030844184 -0.0053475853
0.055017374 -0.029369805 0.054924265 0.025238384 -0.026202142 -0.02957582 0.020098433 -0.025646456
0.0017570374 -0.06248823 -0.04723854 0.041420277 -0.06933252 0.033535343 -0.03757678 -0.029705957
-0.016494721 0.07329599 0.032474827 0.009656844 -0.0074086925 -0.008023768 0.06236876 0.037912473
-0.0052850773 0.08177577 0.02477917 -0.051271755 -0.069344886 0.08154927 -0.04896511 0.046485446
-0.038966022 -0.029434623 0.0554724 0.052027714 0.041616652 0.04287661 0.075354114 0.011778511
0.060471352 -0.0014215487 0.020026006 -0.044842888 0.0007421754 0.0010480285 -0.0018009047 -0.011936108
0.042789824 -0.01471496 -0.04984071 -0.030120809 0.04888842 -0.012967965 0.025913179 -0.009243815
00000000: 4f28 943d 5862 c53d d133 3a3c 0ee4 2ebd
00000010: 306e afbb a260 9fbc bdc8 133d 13af 1c3d
00000020: 64dd 1c3d 5c1f 3dbd 6129 03ba 979d d1bc
00000030: a632 e73d 9beb 83bb 40d0 973b 4018 69bc
00000040: c144 c5bc 7859 95bb 2d2d 8bbc f737 823d
00000050: 35d7 6f3c c552 473d 2726 b03d 1d94 db3c
00000060: a78c f4bc 7cec 8d3d 48b9 d7bc bf8b b13d
00000070: 51bd 4abd f607 f33c afe1 4dbc 3015 82bd
00000080: 3d1e c5bc d503 b73d 0b98 723d c0c5 943c
00000090: 8ae8 783b f53b ccbc 4258 1eba 141f 2cbd
000000a0: 89d7 cdbc e87c 19bd 5cab 2f3d 41d3 553c
000000b0: b485 503d b10a 343d e0a8 323c 953c 29bd
000000c0: 37d4 eabb f250 46bd 7149 27bd f4d8 22bc
000000d0: d932 883d 3978 3b3d 1242 123d 12d2 1f3d
000000e0: 21f1 b63d 8715 6a3d 257a 943d 91b2 183d
000000f0: f7f1 ce3d 7143 963c 9fc7 3fbd 122a 16bd
00000100: 27c4 00bd aa51 933d 1f59 af3c 99ab 843d
00000110: 2751 ab3d 5d76 9e3d 148c 52bd ff53 9f3d
00000120: 6f1d c33c 5de3 353d e8b7 e43d 4ed7 713d
00000130: 0dd7 b93d 8273 a83d 800e c8bb d5d6 b2bc
00000140: 4237 26bd 6a6f afbb 9bb5 7abd f2fa b03d
00000150: 7d9b 7e3d ebe1 39bb bdf3 113c a290 4c3d
00000160: f10f c63c cce4 923d 5e21 bf3d 3dfc 6ebb
00000170: 9174 68bd 5f20 623d 4a78 7cbc 1797 ccba
00000180: d29f 0cbd 6e70 cb3c 1975 54bc 6863 853d
00000190: 7caa 5a3d a04a 25bd 0a04 9b3d 8d04 a6bb
000001a0: 9fc9 47bd 423a 24bd 87b3 803d 3421 c53c
000001b0: 3da2 533d 4ab1 093d b528 1cbd 86d1 e3bb
000001c0: 789b 9fbc 8237 3dbd d6b5 753c 36bb b8bb
000001d0: a2ea 7ebc 3a1c 523c 15ff dbbc c1e8 7a3c
000001e0: 22c7 003d e979 8d3d 88ea 213c 329f 233d
000001f0: 9f07 8d3d 1b0d 843b 5764 9dbc 1fdf 233b
00000200: 76dc 8fbc 7d9b 513c 2c9d c63c aec9 ceba
00000210: b02a d03b 0e84 203d 81d1 753d 22f6 2f3d
00000220: f6cb 113c f475 0dbd cac4 eb3c 1aba 1f3d
00000230: 4c9c 54bd faec af3c b4ae 92bc 5f38 733d
00000240: 92a7 d13b aea4 ab3d c049 8ebc bf5d 82bc
00000250: d2ad 723d 1435 773d 9682 913d f9c0 d63c
00000260: cf53 86bc ec5d 173d 9a94 833d b00e 7a3c
00000270: 5a3b 423d 5325 9bbd 749f 9c3d 4b61 78bd
00000280: 26d0 b6bd 74d4 c73d 3d5a e8bb 1488 a13d
00000290: 7e54 7eb8 0d8c b43c d204 9b3d 3b72 68bd
000002a0: d9d9 323d 4ef7 ffbc 2c5e a33c 260f 74bd
000002b0: e6f6 73bd 00bc 923d c10f fd3d 65bf d33d
000002c0: 0e4d c03d f741 84bc 7cfb 5b3d 32d5 6e3c
000002d0: a1eb 3c3d b520 6a3c 2ce3 f03d b4dc d33b
000002e0: 8e68 d03c 8034 38bc be1e 15bd 001d 10bd
000002f0: 406f 923d 9a7b b8bd d23d 5abd 1be6 a7bb
00000300: d3e1 463d 3563 7f3d ea76 613d b74e 18bd
00000310: cb8e 90bb 8ca3 573d f423 4abb cc3a afbb
00000320: e659 613d f298 f0bc 44f8 603d bac0 ce3c
00000330: e0a5 d6bc fd48 f2bc 78a5 a43c 8418 d2bc
00000340: 644c e63a a9f3 7fbd 337d 41bd 4fa8 293d
00000350: 35fe 8dbd 5b5c 093d 1cea 19bd e859 f3bc
00000360: f01f 87bc 351c 963d 5304 053d bd37 1e3c
00000370: 9ec4 f2bb 1f76 03bc 6376 7f3d 1c4a 1b3d
00000380: 712e adbb 0e7a a73d b0fd ca3c 5502 52bd
00000390: b104 8ebd 4e03 a73d a48f 48bd 8667 3e3d
000003a0: d69a 1fbd e120 f1bc 0737 633d 031b 553d
000003b0: 3976 2a3d 629f 2f3d 4253 9a3d a8fa 403c
000003c0: cfb0 773d 4253 baba 940d a43c 2dad 37bd
000003d0: 8c8e 423a 005e 893a 560c ecba aa8f 43bc
000003e0: 6244 2f3d 0417 71bc c625 4cbd eabf f6bc
000003f0: 393f 483d 9677 54bc e047 d43c 5f73 17bc

fc_pi.weight f4 [50, 256]
-0.057954203 0.09454817 0.026195712 -0.03211003 0.022928424 -0.07899212 -0.045569208 -0.17838958
0.015081132 0.072554335 -0.006032714 -0.1017352 0.0011326047 0.09155613 0.11309173 -0.15436834
0.0467075 -0.047185946 0.09114526 0.04380982 -0.14481771 0.050483182 0.051143285 -0.013372486
0.03750314 -0.0042566475 0.049588654 0.03035546 -0.080909394 -0.06711731 -0.12071543 -0.12892152
-0.008771263 -0.13319731 -0.06709986 0.115531504 0.025659371 0.09921951 0.047399264 0.011297057
-0.11224346 -0.038494192 -0.023653995 0.07119177 -0.067113 0.050561428 0.019032296 0.043503966
-0.06331559 -0.06443033 0.03571253 -0.067040496 -0.0842754 -0.047133088 0.07191396 0.029537914
0.025195768 -0.05273757 -0.124502264 0.065150306 0.08578529 -0.07042464 0.039868105 -0.06924866
-0.014816669 0.07408928 -0.0649162 0.068061024 -0.059974175 -0.012023552 -0.0802239 0.03270162
0.059818856 -0.015577301 -0.084826745 -0.039448608 -0.0009414858 0.11043366 0.038454365 0.016450604
-0.00862071 -0.04280815 0.012717107 0.05945801 -0.02504558 0.0046985624 0.019045042 -0.047981244
0.117155306 0.036145654 -0.013070732 0.0922078 0.040243734 0.030724313 0.049802303 -0.046617504
-0.08077621 -0.10461729 -0.112503596 0.014332804 -0.0932611 0.0790952 -0.06981708 -0.19165199
-0.06501869 -0.12668754 0.0035061222 0.08414926 -0.10838539 -0.00786314 -0.022355063 -0.16090877
0.066669114 0.0073651774 0.08083413 -0.048127167 0.045266 0.007140144 -0.056964085 0.03152177
-0.069602795 0.06978 0.018202083 -0.034214534 -0.09361618 -0.011813892 0.044472642 -0.087805405
-0.07526152 -0.081474945 -0.06714049 -0.02070004 -0.030613406 -0.033990204 -0.025200086 0.09874192
0.079858646 -0.072965175 -0.1117023 0.072717026 -0.044086635 -0.079737075 -0.041009143 0.0881461
-0.16845022 -0.054204978 -0.08720204 0.02388525 -0.07125894 -0.045305744 -0.12091828 0.11503633
0.10838118 0.047265895 0.07531659 0.011462279 -0.03352847 -0.01792847 -0.07205772 -0.059303094
-0.035657443 -0.07782244 -0.122253925 0.06976355 -0.0824105 -0.06282988 0.032412242 -0.1478513
0.050908595 0.053806532 0.086220875 0.091516115 0.008249825 -0.09410085 0.09679696 0.06263887
-0.016423583 -0.0023538284 0.028721372 0.033675563 0.03377085 0.021876134 -0.0144532 0.057606995
0.042485517 0.05021854 0.01056194 0.07261604 0.02059576 -0.07873392 -0.05423721 -0.027033554
0.046482783 -0.04639404 -0.022424698 0.0011900744 0.050812565 0.06950489 -0.012560847 0.042979438
0.019889679 -0.09606824 -0.011544888 0.034414444 -0.073037416 0.011362658 -0.050884224 -0.09626528
-0.12955205 -0.00096752547 -0.06105969 -0.039458875 0.07195586 -0.030641979 0.06284528 -0.07012251
-0.008902306 -0.07360432 0.08166855 0.010600708 0.09274855 -0.055615067 -0.11750011 0.05111072
-0.038562816 0.0063476465 -0.017384911 -0.15010102 0.00901534 0.042843454 0.045990445 -0.0006001352
-0.12237283 -0.1340875 0.09415122 0.015814852 0.098577835 -0.17553002 -0.022594955 -0.0038925705
-0.009243837 0.04734738 0.026417116 -0.087511584 -0.016018838 -0.051391065 0.022758625 0.066034414
-0.12048124 -0.016323052 -0.012987485 -0.040429253 -0.10249722 0.10072953 0.028799638 0.096614994
00000000: 6361 6dbd 79a2 c13d 6498 d63c cf85 03bd
00000010: 64d4 bb3c 9fc6 a1bd c7a6 3abd c2ab 36be
00000020: da16 773c 5e97 943d 13ae c5bb 8b5a d0bd
00000030: e873 943a c881 bb3d a39c e73d bc12 1ebe
00000040: 5d50 3f3d 0d46 41bd 5eaa ba3d ed71 333d
00000050: 184b 14be 74c7 4e3d 9f7b 513d 4618 5bbc
00000060: e49c 193d 597b 8bbb 791d 4b3d 03ac f83c
00000070: d3b3 a5bd cd74 89bd a739 f7bd 0104 04be
00000080: 58b5 0fbc e064 08be a76b 89bd c89b ec3d
00000090: 9a33 d23c 9933 cb3d bb25 423d 4b17 393c
000000a0: e6df e5bd 16ac 1dbd 06c6 c1bc fecc 913d
000000b0: 8a72 89bd 8019 4f3d 9ee9 9b3c 3731 323d
000000c0: 9bab 81bd 0df4 83bd 4d47 123d 874c 89bd
000000d0: 9598 acbd a00e 41bd a047 933d 7ff9 f13c
000000e0: 5b67 ce3c 5a03 58bd 0bfb febd 866d 853d
000000f0: 33b0 af3d cb3a 90bd bd4c 233d 3ed2 8dbd
00000100: 9dc1 72bc 1fbc 973d c9f2 84bd 9463 8b3d
00000110: 7ba7 75bd 6ffe 44bc 6e4c a4bd 22f2 053d
00000120: 9e04 753d f037 7fbc a5b9 adbd dd94 21bd
00000130: 0bce 76ba 0b2b e23d 5382 1d3d 6bc3 863c
00000140: e13d 0dbc 9957 2fbd 6a5b 503c 3e8a 733d
00000150: 632c cdbc 66f6 993b 5904 9c3c fb87 44bd
00000160: 1fef ef3d 770d 143d a026 56bc 71d7 bc3d
00000170: 9dd6 243d 8eb1 fb3c 80fd 4b3d fff1 3ebd
00000180: ff6d a5bd 9741 d6bd 4968 e6bd 23d4 6a3c
00000190: adff bebd aafc a13d 42fc 8ebd 6b40 44be
000001a0: 8528 85bd 61ba 01be f8c6 653b 7256 ac3d
000001b0: 29f9 ddbd 66d4 00bc f721 b7bc 45c5 24be
000001c0: d189 883d 9657 f13b 5d8c a53d fe20 45bd
000001d0: d768 393d def7 e93b 2c53 69bd f91c 013d
000001e0: e98b 8ebd d1e8 8e3d 891c 953c 8a24 0cbd
000001f0: d7b9 bfbd 0e8f 41bc f228 363d 52d3 b3bd
00000200: b622 9abd 56dc a6bd f480 89bd 2193 a9bc
00000210: f7c8 fabc 5039 0bbd 6970 cebc 3439 ca3d
00000220: ee8c a33d c46e 95bd 2dc4 e4bd aaec 943d
00000230: 3094 34bd 314d a3bd 34f9 27bd f185 b43d
00000240: 377e 2cbe 0a06 5ebd fc96 b2bd 00ab c33c
00000250: 35f0 91bd 8492 39bd 01a4 f7bd 2b98 eb3d
00000260: f4f6 dd3d e299 413d 963f 9a3d 48cc 3b3c
00000270: 2655 09bd bade 92bc ff92 93bd cde7 72bd
00000280: 8a0d 12bd 5f61 9fbd 4460 fabd 31e0 8e3d
00000290: d6c6 a8bd f4ac 80bd b3c2 043d 5566 17be
000002a0: 8885 503d 3d64 5c3d 9294 b03d cd6c bb3d
000002b0: 462a 073c f2b7 c0bd 7c3d c63d cf48 803d
000002c0: c08a 86bc b042 1abb 1549 eb3c 63ef 093d
000002d0: 4e53 0a3d 9435 b33c 1dcd 6cbc 50f5 6b3d
000002e0: 4b05 2e3d f5b1 4d3d fd0b 2d3c b8b7 943d
000002f0: 70b8 a83c 403f a1bd d627 5ebd 7975 ddbc
00000300: bb64 3e3d ad07 3ebd 00b4 b7bc 45fc 9b3a
00000310: d620 503d 9458 8e3d 03cc 4dbc 350b 303d
00000320: aeef a23c 6dbf c4bd c526 3dbc 29f6 0c3d
00000330: a494 95bd 712a 3a3c fa6b 50bd bb26 c5bd
00000340: 4ba9 04be 89a1 7dba ba19 7abd a19f 21bd
00000350: 985d 933d e304 fbbc 07b5 803d 649c 8fbd
00000360: fada 11bc ddbd 96bd d741 a73d 98ae 2d3c
00000370: f4f2 bd3d a0cc 63bd e6a3 f0bd 7959 513d
00000380: 0bf4 1dbd ebff cf3b cd6a 8ebc 15b4 19be
00000390: 14b5 133c 9e7c 2f3d 7a60 3c3d 6452 1dba
000003a0: 9b9e fabd 3c4e 09be 5bd2 c03d 268e 813c
000003b0: 2de3 c93d 24be 33be 0e19 b9bc 7f1a 7fbb
000003c0: 7673 17bc 54ef 413d b568 d83c 4639 b3bd
000003d0: f039 83bc 707f 52bd 4c70 ba3c 0d3d 873d
000003e0: debe f6bd ecb7 85bc 76c9 54bc 2599 25bd
000003f0: 10ea d1bd 494b ce3d 38ed eb3c 15de c53d

fc_pi.bias f4 [50]
0.0092592705 0.022117997 -0.024102755 -0.02988266 0.036825884 0.020729952 -0.030719934 0.051714934
0.026957015 0.031818103 -0.03095798 -0.0031045298 -0.01494187 -0.059212875 0.062044825 0.016227515
0.029452313 0.027098162 0.012409239 -0.007573912 0.021112835 0.04239014 -0.012733048 0.045125958
0.034348283 -0.060982168 -0.008726118 0.06259537 0.003256163 -0.04989851 0.078316286 -0.04312609
0.053762227 -0.021491665 0.029096978 -0.038281135 -0.016416002 -0.001429006 0.018827477 -0.008420865
0.03266805 0.0764643 0.040352993 -0.028870763 -0.01921333 -0.031256307 -0.00018757956 -0.020002957
-0.018897772 0.062731825
00000000: 32b4 173c cd30 b53c 2473 c5bc 7bcc f4bc
00000010: bdd6 163d dcd1 a93c 5fa8 fbbc 0ad3 533d
00000020: f5d4 dc3c b353 023d 979b fdbc 5e75 4bbb
00000030: bfce 74bc 3389 72bd b722 7e3d 91ef 843c
00000040: fa45 f13c f7fc dd3c 1f50 4b3c 942e f8bb
00000050: d3f4 ac3c 49a1 2d3d 469e 50bc ffd5 383d
00000060: c9b0 0c3d 70c8 79bd fef7 0ebc 0032 803d
00000070: 5a65 553b 6162 4cbd 4a64 a03d fca4 30bd
00000080: c835 5c3d 4a0f b0bc c95c ee3c aecc 1cbd
00000090: da7a 86bc 7c4d bbba 153c 9a3c abf7 09bc
000000a0: efce 053d 5199 9c3d 2e49 253d 6182 ecbc
000000b0: 4665 9dbc 9d06 00bd 01b1 44b9 3edd a3bc
000000c0: 80cf 9abc 8b79 803d

fc_v.weight f4 [1, 256]
0.09543908 0.018374424 0.04760709 -0.05170922 0.0136894975 -0.044690944 0.088704154 -0.0007536446
-0.024137102 0.003155865 -0.021717552 -0.005436486 0.02668309 0.03356159 0.057867266 -0.0010036051
-0.0061658937 -0.03681786 -0.029038006 0.06090681 -0.011010152 0.023801278 0.047921572 0.030514225
-0.03516561 0.02754764 -0.017200546 0.057407003 0.011004806 0.005219153 0.046634864 -0.03679655
0.07125305 0.02353237 0.06811544 0.056334596 0.0089971535 -0.038094494 0.04922501 -0.060309436
0.02441928 0.10587877 0.08212921 0.037287157 -0.008302494 -0.028979434 -0.007857395 -0.009283435
0.015065384 -0.035136674 -0.0018521566 -0.021804199 0.077120595 0.08385146 0.016454468 -0.016180258
0.04710191 -0.004528577 -0.015288741 0.051319383 -0.084503405 0.012722107 -0.070908934 -0.024937663
0.082269736 0.0132240085 -0.005951618 0.073790595 0.03300731 0.006345091 0.041180845 0.04525764
0.0541481 0.042313173 0.065663435 0.07174243 0.040719002 0.003988632 0.028713174 0.052079774
-0.028248418 0.019488163 0.08523318 0.01789815 0.09633564 -0.004137531 -0.024042027 0.10544892
-0.027793609 -0.005299633 0.032760467 0.038204398 -0.033705764 0.024664108 0.06350237 -0.018883757
0.029247448 0.007004281 0.052390736 0.032168802 -0.008201764 0.013397389 0.06713733 -0.0042591076
-0.03799975 -0.0030890214 0.038704928 0.021934353 0.053283375 -0.031053122 0.018484777 0.031857017
0.023967152 0.0012534122 -0.061259653 0.05068051 0.023824878 -0.005423046 0.035236053 0.0023588806
-0.016092202 -0.030321414 0.05950544 -0.031897753 0.035851922 0.0933333 0.041534986 -0.024355376
0.021682722 0.08296221 0.010311938 0.05673698 0.038109116 0.021540366 0.06783537 -0.02918376
0.05480087 0.05467371 0.06941088 0.029502615 -0.005718647 0.04255356 0.058057632 0.06037062
0.08951033 0.050796095 0.07290279 -0.023197683 0.058244012 0.0426197 0.060804088 0.048335113
0.029796286 0.041770753 0.024949567 0.06725904 0.05052969 -0.089986965 0.04361655 -0.042564325
-0.059078768 0.046529215 0.048394315 0.043688033 -0.008622404 0.06306514 0.054239195 -0.028017614
-0.040754806 -0.011091889 0.05317814 -0.020243948 -0.033112276 0.046436366 0.07233669 0.03763049
0.07880665 -0.040442143 0.032799453 0.041885883 0.08019381 0.07963779 0.085457414 0.04319521
0.04756561 -0.0120654255 0.00037529375 0.002261343 -0.03483087 -0.04492861 0.0020035456 -0.052898675
0.013902026 0.074724905 0.0318978 -0.05175767 0.025835337 0.07953341 0.09314059 0.07107496
0.055251278 0.08353881 -0.0018538907 0.028635453 0.03257126 0.05992333 0.034428705 0.07620458
-0.03362254 -0.033619836 -0.035399258 0.044174705 -0.025510853 0.053522922 0.015102964 0.035392225
0.024965271 0.041245468 0.064630635 0.0447011 -0.028157588 -0.02169666 -0.013470009 0.01887571
-0.0003549819 0.06277686 -0.0055002426 -0.032204453 -0.021435408 0.03900958 -0.025717212 0.03499147
0.041586142 0.036215052 0.029046003 0.038186457 0.03552719 0.008904469 0.042905208 0.028523419
0.053347692 0.039821688 0.072597116 0.047782253 -0.0019930024 0.0047708307 -0.0110353185 0.02554272
-0.013898878 0.041500654 -0.020567061 -0.06494732 -0.031793114 0.06130596 0.024911968 0.06174292
00000000: 9075 c33d f685 963c a7ff 423d 0ccd 53bd
00000010: ea49 603c da0d 37bd 86aa b53d 3c90 45ba
00000020: 2cbb c5bc a1d2 4e3b 02e9 b1bc 8d24 b2bb
00000030: 7f96 da3c e177 093d 3a06 6d3d 668b 83ba
00000040: 440b cabb 53ce 16bd 1de1 edbc 6b79 793d
00000050: ed63 34bc e6fa c23c 6949 443d f8f8 f93c
00000060: d109 10bd 97ab e13c 29e8 8cbc 9b23 6b3d
00000070: 804d 343c 6e05 ab3b 3304 3f3d fbb7 16bd
00000080: 1eed 913d f5c6 c03c 1c80 8b3d 1bbf 663d
00000090: cc68 133c f908 1cbd 2aa0 493d 0707 77bd
000000a0: f10a c83c f8d6 d83d 5c33 a83d 6bba 183d
000000b0: 2f07 08bc 4766 edbc 4ebc 00bc 8c19 18bc
000000c0: cdd4 763c 79eb 0fbd 10c4 f2ba b89e b2bc
000000d0: 67f1 9d3d 50ba ab3d 85cb 863c 768c 84bc
000000e0: efed 403d 7564 94bb a17d 7abc 4634 523d
000000f0: 1f10 adbd 6270 503c b438 91bd 124a ccbc
00000100: 097d a83d 83a9 583c ca05 c3bb 861f 973d
00000110: ac32 073d 7bea cf3b 3fad 283d 1360 393d
00000120: 66ca 5d3d 9450 2d3d 8d7a 863d b2ed 923d
00000130: f8c8 263d 12b3 823b e437 eb3c 9a51 553d
00000140: 3a69 e7bc a4a5 9f3c bc8e ae3d 249f 923c
00000150: 9f4b c53d 2094 87bb c9f3 c4bc 9af5 d73d
00000160: 6caf e3bc 8ba8 adbb d72f 063d 377c 1c3d
00000170: 0e0f 0abd 620c ca3c 880d 823d 1cb2 9abc
00000180: 5898 ef3c 2b84 e53b ab97 563d 6fc3 033d
00000190: b160 06bc b980 5b3c 4c7f 893d fc8f 8bbb
000001a0: a0a5 1bbd 2e71 4abb 0f89 1e3d acaf b33c
000001b0: ab3f 5a3d 1e63 febc 636d 973c 817c 023d
000001c0: c356 c43c 8949 a43a 67eb 7abd 5e96 4f3d
000001d0: 642c c33c cfb3 b1bb ae53 103d 7397 1a3b
000001e0: cbd3 83bc 9d64 f8bc fabb 733d 38a7 02bd
000001f0: 77d9 123d 8725 bf3d 9720 2a3d ed84 c7bc
00000200: f79f b13c 17e8 a93d 67f3 283c 0965 683d
00000210: 4e18 1c3d 6c75 b03c 45ed 8a3d c812 efbc
00000220: e176 603d 8af1 5f3d 4b27 8e3d 78af f13c
00000230: 7d63 bbbb a44c 2e3d d7cd 6d3d 2f47 773d
00000240: 3151 b73d 910f 503d 0f4e 953d 1109 bebc
00000250: 4691 6e3d ff91 2e3d b50d 793d 0afb 453d
00000260: 5717 f43c cf17 2b3d 0963 cc3c 1cbf 893d
00000270: 38f8 4e3d 164b b8bd 44a7 323d ee57 2ebd
00000280: 94fc 71bd 6b95 3e3d 1e39 463d 39f2 323d
00000290: fc44 0dbc 4c28 813d eb29 5e3d 3285 e5bc
000002a0: 83ee 26bd c1ba 35bc 52d1 593d a3d6 a5bc
000002b0: bda0 07bd 0f34 3e3d 4225 943d 6e22 1a3d
000002c0: 6265 a13d a9a6 25bd b858 063d 8890 2b3d
000002d0: a73c a43d 2319 a33d 4c04 af3d 76ed 303d
000002e0: 28d4 423d 10ae 45bc 13c3 c439 0a33 143b
000002f0: d0aa 0ebd 1007 38bd eb4d 033b 48ac 58bd
00000300: 53c5 633c 5f09 993d 44a7 023d daff 53bd
00000310: a1a4 d33c 6ae2 a23d 7ec0 be3d c08f 913d
00000320: 2a4f 623d 6516 ab3d 40fe f2ba e694 ea3c
00000330: 7169 053d 2a72 753d 1d05 0d3d 2611 9c3d
00000340: cab7 09bd f4b4 09bd d0fe 10bd 89f0 343d
00000350: 23fc d0bc da3a 5b3d 6c72 773c 70f7 103d
00000360: f883 cc3c 02f1 283d 115d 843d 8018 373d
00000370: beaa e6bc 32bd b1bc 50b1 5cbc 3ca1 9a3c
00000380: dd1c bab9 2891 803d 613b b4bb d1e8 03bd
00000390: 4f99 afbc 82c8 1f3d e7ac d2bc 3753 0f3d
000003a0: 3b56 2a3d 3c56 143d e2f1 ed3c 6769 1c3d
000003b0: f584 113d 0de4 113c 5fbd 2f3d f2a9 e93c
000003c0: 1c83 5a3d 111c 233d ccad 943d 53b7 433d
000003d0: 089d 02bb a154 9c3b 7bcd 34bc f73e d13c
000003e0: 1fb8 63bc 97fc 293d 417c a8bc 1a03 85bd
000003f0: 7f39 02bd f51b 7b3d 2f14 cc3c 25e6 7c3d
